mnist_model.pth (torch, 440112 bytes, 6 tensors)

fc1.weight f4 [128, 784]
0	0x3ac8bd40	0.001531519
1	0x3d0cc137	0.03436395
2	0x3c11d3e8	0.00890062
3	0x3ce5af62	0.02803773
4	0xbbe2a854	-0.006917039
5	0x3c4fe3b0	0.012688562
6	0x3c87eecc	0.01659336
7	0xbcfd04ac	-0.030886017
8	0xbb5923d0	-0.0033132918
9	0xbca009d0	-0.019535929
10	0xbcc6c1f3	-0.024262404
11	0x3c10d358	0.008839451
12	0xbd319ecb	-0.043364327
13	0xbb835e81	-0.0040090685
14	0x3b8a9388	0.004229013
15	0x3c03c434	0.008042384
16	0x3cef5dce	0.029219534
17	0xbb13ee00	-0.002257228
18	0xbd0d9592	-0.03456647
19	0x3d0c56dd	0.034262527
20	0xbcd579de	-0.026059087
21	0xbcc2b703	-0.023768907
22	0xbbc778dc	-0.0060874056
23	0xbcc52ba5	-0.024068663
24	0x3ce4c8d2	0.02792779
25	0xbc04d958	-0.008108459
26	0x3bf82860	0.0075731725
27	0xbbfdb840	-0.0077429116
28	0xbd045b10	-0.032313406
29	0x3d0be733	0.034156036
30	0x3b983930	0.004645489
31	0xbcce1a48	-0.025159016
32	0xbcaaf028	-0.020866469
33	0xbc9d1270	-0.01917383
34	0xbcf3afad	-0.029746855
35	0xbd780389	-0.060550246
36	0xbdac2754	-0.08405939
37	0xbd80b8ed	-0.06285272
38	0xbd2907db	-0.041267257
39	0xbd0377cc	-0.03209667
40	0xbde84fd6	-0.113433525
41	0xbdad96a1	-0.08475996
42	0x3d009079	0.03138778
43	0xbdb0ea6d	-0.08638463
44	0xbdbebb6a	-0.0931309
45	0xbe104191	-0.14087512
46	0xbd74f56f	-0.059804376
47	0xbd692f63	-0.056929957
48	0xbdaf50b1	-0.085603125
49	0xbd1fe034	-0.039032176
50	0xbd857fdb	-0.06518527
51	0xbd00637b	-0.031344872
52	0xbc2137ee	-0.009839995
53	0x3cd0185c	0.02540224
54	0xbcad7803	-0.02117539
55	0xbbcb0548	-0.006195698
56	0x3d063477	0.032764878
57	0x3c7f96b4	0.015599895
58	0xbcb634b8	-0.022241935
59	0xbb6c3566	-0.003604257
60	0xbd225163	-0.039628398
61	0xbb610456	-0.003433486
62	0xbd7981d8	-0.060914844
63	0xbde7e117	-0.11322229
64	0xbdb45ce7	-0.08806782
65	0xbdf295fc	-0.118450135
66	0xbe0a42d8	-0.13502061
67	0xbe04eea8	-0.12981665
68	0xbde8197c	-0.11332986
69	0xbd795e75	-0.060881097
70	0xbd7bd44f	-0.06148177
71	0xbd4a73f1	-0.049426977
72	0xbdb7d45a	-0.0897605
73	0x3cded441	0.02720082
74	0x3d9c59a2	0.076342836
75	0x3d6257b1	0.05525941
76	0x3d5d4dc3	0.054029237
77	0xbdc6c2dd	-0.09705136
78	0xbd443933	-0.047906112
79	0xbd43c2d0	-0.04779321
80	0xbd2bc34b	-0.041934293
81	0xbd82299a	-0.06355591
82	0xbc1113e0	-0.008854836
83	0xbc8996dc	-0.016795568
84	0x3c8a078c	0.016849302
85	0x3c01655c	0.007897701
86	0x3d6eaa48	0.05826786
87	0xbd056d19	-0.032574747
88	0xbc02d7ba	-0.0079860035
89	0xbda94db8	-0.08266777
90	0xbc9fdc9f	-0.01951438
91	0xbde2c0c2	-0.11071922
92	0xbe4f8de2	-0.20268968
93	0xbe231edd	-0.15929742
94	0xbe0b7c0a	-0.13621536
95	0xbcd38ea9	-0.025824862
96	0xbcbf0c42	-0.023321275
97	0xbc68aa90	-0.0142008215
98	0xbd26410d	-0.04058938
99	0x3c3c04a2	0.011475714
100	0x3d1193d8	0.035541385
101	0x3cba4774	0.02273915
102	0x3e0a9c1f	0.13536118
103	0x3dbf5e4f	0.0934416
104	0x3d961c8e	0.07329665
105	0x3daac4a5	0.08338288
106	0x3d3e8689	0.04651502
107	0xbd5eea61	-0.05442274
108	0xbd0f39a6	-0.034967087
109	0xbd569aed	-0.052393842
110	0xbd8b7027	-0.06808501
111	0xbd0e0585	-0.034673233
112	0xbc73ece0	-0.014888018
113	0x3d40ac63	0.0470394
114	0x3de4e006	0.111755416
115	0x3dd5731a	0.104223445
116	0x3d27ebe7	0.04099646
117	0x3d3fdf5c	0.04684387
118	0x3d7d84aa	0.061894096
119	0x3d73108c	0.059341952
120	0x3d0090fd	0.03138827
121	0xbd6298c1	-0.05532146
122	0xbd98e965	-0.074663915
123	0x3d2b005d	0.041748393
124	0x3d0f6e0b	0.035017055
125	0x3d2d5ee0	0.042326808
126	0xbcbf5628	-0.023356512
127	0x3ab44d71	0.001375599
128	0x3d100f04	0.03517057
129	0xbbd81c2f	-0.0065951566
130	0xbcd458c9	-0.025921242
131	0x3db964f3	0.09052458
132	0x3d92ac49	0.07161767
133	0x3df33aff	0.11876487
134	0x3db9e7a4	0.09077385
135	0x3dda5736	0.106611654
136	0x3dc4f092	0.09616198
137	0x3d8771c1	0.06613494
138	0x3d2ae2ed	0.04172032
139	0xbdd313c6	-0.10306506
140	0xbc6a7b92	-0.014311688
141	0xbc427bf8	-0.011870377
142	0x3d52dae6	0.05147829
143	0x3d1bfc26	0.038082264
144	0xbdcc5c56	-0.09978549
145	0x3dcdc1b1	0.10046709
146	0x3d91c4fb	0.07117649
147	0x3d99c873	0.07508936
148	0x3d6fc65c	0.05853878
149	0x3d6f6320	0.058444142
150	0x3caeb850	0.021328121
151	0x3d7887a4	0.060676232
152	0x3d3f7c7e	0.046749584
153	0xbd2fe936	-0.042947017
154	0x3b8c22cf	0.0042766104
155	0x3d65ca05	0.056100864
156	0x3d53ece5	0.051739592
157	0x3c9d5783	0.019206768
158	0xbdcaa051	-0.09893859
159	0xbdf2b8bc	-0.118516415
160	0xbda3c58c	-0.079966635
161	0xbda9a9af	-0.08284318
162	0x3d1bb9d9	0.038019035
163	0x3c0efcf6	0.008727303
164	0x3d4e23f6	0.050327264
165	0x3beebd2e	0.0072857356
166	0xbd22cd1b	-0.039746385
167	0xbd5ae53b	-0.053441267
168	0x3d099085	0.03358509
169	0x3b47601f	0.0030422283
170	0xbc81ae18	-0.015830085
171	0x3a72e155	0.00092651445
172	0x3afb20c3	0.0019159544
173	0x3db3ea5c	0.08784935
174	0x3dd2ff28	0.103025734
175	0x3cf5c83d	0.030002708
176	0x3dcf4986	0.10121445
177	0x3cc0f191	0.023552688
178	0x3bb1bcf9	0.0054241386
179	0x3d8690ee	0.06570612
180	0x3c99f1a8	0.018791988
181	0xbcc9ef9b	-0.024650386
182	0xbd927fde	-0.07153295
183	0xbd2c7aab	-0.042109173
184	0xbbc42d34	-0.005986834
185	0xbd633a78	-0.055475682
186	0xbd88abd3	-0.06673398
187	0xbc0b0f94	-0.008487601
188	0xbce2d414	-0.027689017
189	0xbd4311ee	-0.04762452
190	0xbcb8777d	-0.022517914
191	0x3d2b8b06	0.04188063
192	0x3d9f02aa	0.0776418
193	0x3b25e931	0.0025315995
194	0x3e078923	0.13235907
195	0x3b45a5a6	0.0030158549
196	0xbc2c97a7	-0.010534204
197	0x3de72a5f	0.112873785
198	0xba4833c1	-0.00076371065
199	0x3c6aa74c	0.014322113
200	0xbd969f1b	-0.07354566
201	0xbb3736c6	-0.0027956231
202	0x3c852494	0.016252793
203	0x3d3c24f6	0.045933686
204	0xbd35eed9	-0.044417236
205	0x3d2272d4	0.03966029
206	0x3d6a9dd6	0.05727943
207	0xbd089bbd	-0.03335165
208	0xbda73f30	-0.08166349
209	0xbdb3e529	-0.08783943
210	0xbe0917a6	-0.13387927
211	0xbe0de2a2	-0.13855985
212	0xbd9ef6a9	-0.077618904
213	0xbd95aff3	-0.0730895
214	0xbd5c8478	-0.05383727
215	0xbdaec793	-0.085341595
216	0xbd42c115	-0.04754742
217	0xbd2dc69b	-0.042425733
218	0x3cbae175	0.022812584
219	0x3dcc9a61	0.09990383
220	0x3db1350d	0.08652697
221	0x3da2fddc	0.07958576
222	0x3e4fea5e	0.20304248
223	0xbc19a866	-0.009378528
224	0xbbd6b295	-0.0065520504
225	0x3d789c95	0.060696203
226	0x3da493f5	0.08036033
227	0x3d8ed47d	0.06974123
228	0xbca8806f	-0.020569054
229	0x3cd24838	0.025669202
230	0x3d37b7e9	0.044853125
231	0x3d0e9400	0.034809113
232	0x3c8791ca	0.01654901
233	0xbc1c76e9	-0.009549835
234	0xbce87e1e	-0.02838045
235	0xbb64e4cf	-0.003492642
236	0xbc09258c	-0.008370768
237	0xbde4a02d	-0.111633636
238	0xbdf70bcc	-0.12062797
239	0xbdeca7ff	-0.1155548
240	0xbdc9a013	-0.09844985
241	0xbdd07088	-0.10177714
242	0xbc7bb2ae	-0.015362425
243	0x38afd770	8.3847786e-05
244	0x3c04d4c9	0.008107373
245	0xbb82080f	-0.003968246
246	0x3de86ea3	0.11349227
247	0x3ddcd6a4	0.10783127
248	0x3e634ece	0.2219803
249	0x3e8c9d56	0.27463788
250	0x3e5745ea	0.21022764
251	0x3d484b47	0.048899915
252	0x3db0f07a	0.08639617
253	0x3de8f370	0.11374557
254	0xbbba88e7	-0.0056925896
255	0x3cf1156b	0.029429158

fc1.bias f4 [128]
0	0x3dd83269	0.1055649
1	0x3d8e23b7	0.06940406
2	0x3da7a0c7	0.08184963
3	0x3ccee4ad	0.025255525
4	0x3e3afc30	0.18260264
5	0x3c85779c	0.016292386
6	0x3dc57519	0.09641475
7	0x3d7f1c3b	0.062282782
8	0x3d65b662	0.056082137
9	0xbe08f2f7	-0.13373934
10	0xbdb1a9a5	-0.08674935
11	0xbd19e397	-0.037570562
12	0xba9496be	-0.0011336429
13	0xbd476e31	-0.04868907
14	0x3d522e64	0.051313773
15	0x3d64698f	0.05576473
16	0xbdda6daf	-0.10665452
17	0x3dc7372f	0.09727322
18	0xbceb68a5	-0.028736422
19	0x3d4a04d5	0.049321014
20	0x3e0d0151	0.13770033
21	0x3ccdcaf6	0.025121193
22	0x3d56792a	0.052361645
23	0xbcde7ccb	-0.027159115
24	0x3dd786bf	0.10523748
25	0x3db24120	0.08703828
26	0x3c89471d	0.016757542
27	0x3d083470	0.033253133
28	0x3c560d6b	0.0130647225
29	0xbd4c1746	-0.049826883
30	0x3d9a4dd7	0.07534378
31	0xbd28c31f	-0.041201707
32	0xbd555e6a	-0.052091993
33	0x3dd1426d	0.10217748
34	0x3e63ec46	0.222581
35	0xbd35c119	-0.044373605
36	0x3d2e8bad	0.042613674
37	0x3d41b39e	0.047290437
38	0x3e2187db	0.15774481
39	0x3cdeddc1	0.02720535
40	0xbd131891	-0.0359121
41	0xbdaad686	-0.08341698
42	0x3d536727	0.051612046
43	0x3d0b1d23	0.033963334
44	0xbc33f766	-0.010984277
45	0x3c8068d6	0.01567499
46	0x3e28d9a6	0.16489276
47	0x3b683694	0.0035432922
48	0xbd37fd80	-0.04491949
49	0x3d626b58	0.055278152
50	0x3d9e2048	0.07721001
51	0x3da7daef	0.08196055
52	0x3d10c7a1	0.03534663
53	0x3d67d57e	0.056600086
54	0xbc9a4600	-0.018832207
55	0x3df6a6f4	0.120435625
56	0x3db121ad	0.08649001
57	0x3db51fe0	0.0884397
58	0x3d33b1f2	0.043870874
59	0x3c1c2cc3	0.009532156
60	0x3c00fade	0.007872311
61	0x3da50194	0.08056942
62	0x3db1d6f1	0.08683575
63	0x3d84bb58	0.064810455
64	0x3d2098f4	0.039208367
65	0x3d8a8003	0.067626975
66	0xbd12467c	-0.03571175
67	0xbda5e092	-0.08099474
68	0x3e2eba74	0.17063314
69	0x3be89c8e	0.007098741
70	0xbd04a18e	-0.032380633
71	0xbd31cfc5	-0.043411035
72	0x38ed4969	0.00011314714
73	0x3ccca069	0.024978833
74	0xbd797350	-0.060900986
75	0xbc5c6d7b	-0.013453837
76	0x3de50476	0.111824915
77	0x3c037a98	0.008024834
78	0x3e0ed1b8	0.13947189
79	0xbd06ca44	-0.03290774
80	0x3e046d95	0.12932427
81	0x3c0cdae5	0.00859711
82	0xbc87cf11	-0.01657823
83	0xbd318fcd	-0.04335003
84	0x3ca0f2a4	0.01964695
85	0xbd88e9e5	-0.06685237
86	0xbcaadc2f	-0.020856945
87	0x3da1f62f	0.07908284
88	0xbcf6c0b2	-0.030121181
89	0xbc907b89	-0.017637031
90	0x3dc2f568	0.09519464
91	0xbd33c0c8	-0.043885022
92	0x3a83f8f4	0.0010068701
93	0xbb988cc6	-0.0046554534
94	0x3dfa12ef	0.122106425
95	0xbd854990	-0.065081716
96	0xbd300008	-0.04296878
97	0x3df122d9	0.11774225
98	0xbdc75063	-0.097321294
99	0x3d0c54a1	0.034260396
100	0xbd03da38	-0.03219053
101	0x3d1bd47a	0.03804443
102	0xbd67f319	-0.05662832
103	0x3cee87b2	0.029117439
104	0xbd563f59	-0.052306507
105	0x3de09e1a	0.109676555
106	0x3c347316	0.011013767
107	0xbc96d947	-0.018414153
108	0x3e1858f4	0.14877683
109	0x3d0a4687	0.033758666
110	0x3da4740c	0.08029947
111	0xbdf53455	-0.11972872
112	0x3d027c02	0.031856544
113	0x3c13adea	0.009013632
114	0x3dbd878f	0.092543714
115	0x3d951895	0.07280079
116	0xbdab8119	-0.08374233
117	0x3dc073c4	0.093970805
118	0x3d022e56	0.03178247
119	0x3d86abf9	0.0657577
120	0x3d0f2d28	0.034955174
121	0x3bbbae6b	0.0057275794
122	0xbcbd6cf1	-0.023123236
123	0x3c64440c	0.013932239
124	0x3d079135	0.033097465
125	0x3dc26ea0	0.09493756
126	0xbd00b906	-0.031426452
127	0x3de3c47f	0.11121463

fc2.weight f4 [64, 128]
0	0xbdaa8797	-0.08326643
1	0xbdce9b82	-0.100882545
2	0xbd5d4b24	-0.054026738
3	0x3c84d052	0.016212616
4	0x3e5e0fdf	0.21685742
5	0xbe0d29fc	-0.13785547
6	0x3e39c4f0	0.18141532
7	0x3de25936	0.11052172
8	0xbd102e11	-0.035200182
9	0xbd78ca56	-0.060739838
10	0xbb83299d	-0.0040027634
11	0xbd407bbe	-0.04699301
12	0x3e284e16	0.16436037
13	0xb9c2bcf4	-0.00037143345
14	0xbdef9ecd	-0.11700211
15	0xbc997142	-0.018730763
16	0x3dee7210	0.116428494
17	0xbdb2ba1a	-0.08726902
18	0xbda21a80	-0.07915211
19	0x3dad4ab1	0.08461512
20	0xbe07d953	-0.13266496
21	0xbd0ec37c	-0.034854397
22	0x3e202768	0.15640032
23	0x3cf27be6	0.029600095
24	0x3aef6eff	0.0018267332
25	0xbc545e66	-0.0129619595
26	0xbd5ee440	-0.054416895
27	0x3dfd73b8	0.12375587
28	0x3dd7eeaa	0.105435684
29	0x3e098a27	0.13431607
30	0x3e0c23a4	0.13685471
31	0x3e10c4e7	0.14137612
32	0x3dcb272f	0.09919583
33	0x3dc5162a	0.09623368
34	0x3e782b42	0.24235252
35	0x3dc97287	0.098362975
36	0xbeae5dcf	-0.34055945
37	0x3d1dd115	0.038529474
38	0xbe59032f	-0.2119262
39	0x3ce4f7de	0.027950224
40	0xbe268f6b	-0.16265647
41	0x3e203980	0.15646935
42	0xbdd51f27	-0.104063325
43	0x3c839b7c	0.016065352
44	0x3dd32928	0.10310584
45	0x3de2dbdc	0.11077091
46	0x3e826578	0.2546804
47	0xbdac2aaa	-0.08406575
48	0xbba42714	-0.0050095413
49	0x3de6335f	0.11240267
50	0x3d4ea008	0.050445586
51	0xbe1a23f4	-0.15052778
52	0xbd85a6cc	-0.065259546
53	0x3da51d68	0.080622494
54	0x3c891a6a	0.016736228
55	0x3e17bc00	0.1481781
56	0xbe0c2afb	-0.13688271
57	0x3b597704	0.003318251
58	0xbd989bf9	-0.074516244
59	0xbe37bb34	-0.17942506
60	0x3bab6386	0.00523037
61	0xbdd92f08	-0.106046736
62	0xbbd1ec8e	-0.0064063733
63	0xbe075fca	-0.13220134
64	0x3d8222d3	0.063542984
65	0xbd4cd982	-0.05001212
66	0xbd894827	-0.06703215
67	0x3cba2d6e	0.02272674
68	0x3e575983	0.2103024
69	0x3dc5593d	0.096361615
70	0x3c94f3b0	0.018182606
71	0x3dc296c2	0.09501411
72	0x3e15ec6c	0.14640969
73	0xbc0a02bd	-0.008423504
74	0xbe6b26af	-0.22963975
75	0xbe47422e	-0.1945884
76	0x3dd48b29	0.10378105
77	0x3e677ca7	0.22606145
78	0xbd7f2495	-0.062290747
79	0xbe055492	-0.13020542
80	0x3e168d91	0.14702441
81	0x3d6d61a1	0.057954434
82	0xbde4ef03	-0.111784
83	0xbd071db1	-0.0329873
84	0xbe2da944	-0.16959101
85	0x3dbc04d7	0.091806106
86	0x3e0da810	0.13833642
87	0xbe412206	-0.18860635
88	0xbd98015c	-0.07422134
89	0x3d18b8aa	0.037285484
90	0x3d644719	0.055731867
91	0xbc045ed4	-0.008079249
92	0xbd208eb7	-0.039198603
93	0x3d255ca8	0.040371567
94	0xbcbf2a4b	-0.023335597
95	0xbca3203d	-0.019912833
96	0xbd1428df	-0.03617179
97	0xbc81aa9b	-0.015828421
98	0x3da2cf65	0.079497136
99	0x3cb9930c	0.022653125
100	0xbd6a41f6	-0.05719181
101	0xbdaef34f	-0.08542501
102	0x3dba673b	0.09101721
103	0xbd6e29de	-0.058145396
104	0x3c7cca12	0.015429037
105	0xbe20443a	-0.15651026
106	0x3e6add9e	0.22936103
107	0xbd06a955	-0.03287633
108	0x3e232e80	0.15935707
109	0xbdc3613c	-0.0954003
110	0x3e298990	0.16556382
111	0x3dcdbf1b	0.10046216
112	0xbe213611	-0.15743281
113	0xbd4d4da6	-0.05012288
114	0x3e4e364f	0.20137905
115	0xbdb1cecf	-0.08682024
116	0xbc4a306f	-0.012340649
117	0x3e3d4e82	0.1848698
118	0x3c2d41c9	0.010574766
119	0x3dc4343e	0.09580277
120	0x3e043e5d	0.12914415
121	0x3e26efc8	0.16302407
122	0x3d628dfd	0.05531119
123	0xbe7fd162	-0.24982217
124	0x3dc88d5f	0.097925894
125	0xbcbf94da	-0.023386408
126	0x3daf7bca	0.08568533
127	0x3dead911	0.114671834
128	0x3e3ff443	0.18745522
129	0xbdfb0200	-0.12256241
130	0xbd6601dd	-0.05615412
131	0x3da8b238	0.082371175
132	0x3e4392c9	0.19098963
133	0x3d44db01	0.04806042
134	0x3db19313	0.0867063
135	0x3d9771a6	0.073947236
136	0x3dd4c27c	0.103886575
137	0xbd370d9c	-0.044690713
138	0xbd85672a	-0.065138176
139	0x3d6334da	0.055470325
140	0x3eedaa9b	0.46419224
141	0xbd1489e5	-0.03626432
142	0x3d728bc5	0.059215326
143	0xbd09fd04	-0.03368856
144	0xbcc4031e	-0.023927268
145	0x3cb40bca	0.021978278
146	0xbd56a5be	-0.052404158
147	0x3d6e0a81	0.058115486
148	0xbdcd6d7d	-0.10030649
149	0x3e27a3de	0.16371104
150	0x3ddf53de	0.10904668
151	0x3e8e8941	0.2783909
152	0x3e539f5d	0.20666261
153	0x3db7871e	0.089613184
154	0x3c950fc7	0.018196
155	0xbd178cf1	-0.036999647
156	0xbdf906b2	-0.1215948
157	0xbdf5c41f	-0.12000298
158	0x3cde6ab2	0.027150486
159	0x3cafe7ca	0.02147283
160	0xbdc2d274	-0.09512797
161	0xbd61a72f	-0.05509108
162	0xbde4d6c3	-0.11173775
163	0x3d9ca377	0.07648366
164	0x3d9acc50	0.07558501
165	0x3e1ad0fb	0.15118782
166	0x3d73b560	0.059499145
167	0x3e343061	0.1759658
168	0x3d2d445e	0.04230153
169	0xbe293d2f	-0.16527246
170	0x3d6c5baa	0.057704605
171	0xbd93f8ca	-0.07225187
172	0x3cbacc58	0.022802517
173	0x3d713f54	0.058898285
174	0x3e1b7589	0.15181555
175	0x3c74ed12	0.0149491
176	0xbd6a7011	-0.05723578
177	0xbd56506c	-0.05232279
178	0x3e66f49f	0.22554253
179	0x3da2bdcc	0.07946357
180	0x3da2a21d	0.07941077
181	0x3dc8ce5d	0.09804986
182	0x3dbb321e	0.091404185
183	0x3e848124	0.25879776
184	0x3d54edcd	0.051984597
185	0x3e0535eb	0.1300885
186	0x3d5a9557	0.053365078
187	0x3dcbcf3c	0.09951636
188	0x3d4b8bea	0.04969398
189	0xbe7db1ab	-0.24774806
190	0xbbf5a23c	-0.0074961465
191	0x3d1850c7	0.03718641
192	0xbc9c43d8	-0.01907532
193	0x3cb09175	0.021553734
194	0xbe024de2	-0.12725022
195	0xbe56fe6c	-0.20995492
196	0x3ec4e52a	0.38456088
197	0x3c87aa39	0.01656066
198	0xbd477fc9	-0.04870585
199	0x3ced37d5	0.028957287
200	0xbe4d4768	-0.2004677
201	0xbe31130f	-0.17292427
202	0xbe0b8295	-0.13624032
203	0x3d9928a7	0.07478457
204	0xbc6affd5	-0.014343222
205	0x3b27a58f	0.0025580858
206	0x3d1b1758	0.03786406
207	0x3cb47daf	0.022032587
208	0x3e389ea7	0.18029271
209	0x3d76309d	0.060104955
210	0x3c0c8c3c	0.008578356
211	0xbc201b4e	-0.009772135
212	0xbe3b0cba	-0.18266574
213	0xbeabb398	-0.33535457
214	0xbdf78fff	-0.12088012
215	0xbccd22d6	-0.025041025
216	0x3dec7c24	0.115471154
217	0xbe062c80	-0.13102913
218	0x3d84be6f	0.06481635
219	0x3cbf9195	0.023384849
220	0x3dc30751	0.0952288
221	0xbcee30bd	-0.029075975
222	0x3e194b0c	0.14970034
223	0xbe08d098	-0.13360822
224	0xbd50727c	-0.05089043
225	0xbcba84ad	-0.022768343
226	0xbe4fb2a1	-0.20282985
227	0x3e5c0ed6	0.21490034
228	0xbdf457a9	-0.11930782
229	0xbd860f18	-0.06545848
230	0xbea5211f	-0.32251832
231	0xbaa3cb7e	-0.0012496558
232	0xbd797d59	-0.060910556
233	0x3e3c822d	0.18409033
234	0x3dbae59a	0.09125824
235	0x3d52354d	0.051320363
236	0xbcefd868	-0.029277995
237	0x3d9980d6	0.07495277
238	0x3e063f3f	0.13110064
239	0xbdb05321	-0.086096056
240	0x3e7cd7ad	0.24691649
241	0x3d90fab4	0.07079068
242	0xbe414ab0	-0.18876147
243	0xbe207b67	-0.15672074
244	0xbeb19223	-0.34681806
245	0x3d4a2570	0.04935211
246	0xbd611447	-0.05495098
247	0xbe94bf87	-0.29052374
248	0x3dacebb7	0.084433965
249	0xbbec5001	-0.0072116856
250	0xbc141984	-0.0090392865
251	0xbe84138c	-0.25796163
252	0xbdb81941	-0.08989192
253	0x3d62dbfe	0.055385582
254	0x3c9b441f	0.018953381
255	0xbd26e878	-0.040749043

fc2.bias f4 [64]
0	0x3e038863	0.12844996
1	0x3c991264	0.018685527
2	0xbd679482	-0.056538112
3	0x3d91f374	0.07126513
4	0xbdaec554	-0.08533731
5	0xbda8614c	-0.08221683
6	0x3dd80504	0.10547832
7	0x3d9fd566	0.078043744
8	0x3dd10502	0.10206033
9	0x3da6883f	0.08131456
10	0xbc03123d	-0.007999954
11	0xbc90acdb	-0.017660549
12	0xbdc3aef7	-0.09554856
13	0x3d48acd1	0.048992936
14	0x3c3ef7a8	0.011655726
15	0xbdd8b748	-0.10581833
16	0x3c9a3d64	0.018828101
17	0xbd20d2db	-0.039263587
18	0x3d1ab209	0.037767444
19	0x3b3e37f2	0.0029025045
20	0x3e14dd79	0.1453761
21	0xbdb5c51c	-0.08875486
22	0xbd5c92cf	-0.053850945
23	0x3decad58	0.115565
24	0x3ccd5862	0.025066558
25	0x3da7f5b1	0.08201159
26	0x3dd1f10e	0.10251056
27	0x3c583bf9	0.013197892
28	0x3e116568	0.1419884
29	0x3c5c5c80	0.013449788
30	0x3ca7d44d	0.020486975
31	0xbd46f69e	-0.048575036
32	0x3befb65a	0.007315439
33	0x3ddb6504	0.107126266
34	0xbba6f30d	-0.005094892
35	0x3d4f658f	0.050633963
36	0x3dda6202	0.10663225
37	0x3dffbf3e	0.124876484
38	0xbac649d2	-0.0015128201
39	0xbd285bda	-0.04110322
40	0xbd5d6654	-0.054052666
41	0xbd0ad1a0	-0.03389132
42	0x3deadc32	0.1146778
43	0xbd89109b	-0.0669262
44	0xbcb296eb	-0.021800479
45	0xbcb38263	-0.02191276
46	0xbd3c8e2c	-0.046034023
47	0xbcb9ce3f	-0.022681354
48	0x3cbfc147	0.023407592
49	0xbd0413cb	-0.03224544
50	0xbd6d54e5	-0.05794229
51	0x39c77d09	0.00038049396
52	0x3d83c940	0.0643487
53	0xbd37346f	-0.04472774
54	0x3dfb2f1a	0.12264843
55	0x3cb0c8cc	0.021580122
56	0xbca33e74	-0.01992724
57	0xbd8ef1a8	-0.06979686
58	0x3dcbe7cb	0.099563204
59	0xbd8317e1	-0.06401039
60	0x3c4387c1	0.011934222
61	0x3e2772b9	0.16352357
62	0x3d1f3924	0.038872853
63	0x3cb8de25	0.022566864

fc3.weight f4 [10, 64]
0	0x3e2b1b5a	0.16709653
1	0x3adec373	0.0016995504
2	0x3ddd4fed	0.1080626
3	0x3d954dce	0.07290231
4	0xbd0e4c86	-0.034740947
5	0x3e58c3d6	0.21168455
6	0xbe76cbb2	-0.24101141
7	0xbc6cb726	-0.014447963
8	0xbe3d84bc	-0.18507665
9	0xbd0910ce	-0.03346329
10	0xbeb50c8e	-0.3536114
11	0xbd897c3b	-0.06713148
12	0xbda6b09a	-0.08139153
13	0x3da5b096	0.08090322
14	0xbd07e876	-0.033180676
15	0xbd720363	-0.05908526
16	0xbad9208d	-0.0016565487
17	0xbe478148	-0.1948291
18	0x3dc9358a	0.09824665
19	0xbdccd099	-0.10000724
20	0xbce5f37c	-0.028070204
21	0x3c8ee63b	0.017443767
22	0xbd1f4803	-0.038887035
23	0xbe120714	-0.14260513
24	0x3e5e65af	0.21718477
25	0xbe0c26ac	-0.13686627
26	0xbe40c283	-0.188242
27	0x3d65bcc8	0.05608824
28	0xbeca2334	-0.39479983
29	0x3e8604e5	0.2617561
30	0x3e4310fc	0.19049448
31	0xbcdbe982	-0.026844744
32	0xbe3f91c4	-0.18707949
33	0x3e18cff3	0.14923076
34	0xbea1eded	-0.31626835
35	0x3e08016b	0.13281791
36	0xbe901203	-0.28138742
37	0xbe6ee466	-0.23329315
38	0x3df7da2e	0.12102161
39	0xbc1632b5	-0.009167363
40	0xbe100a63	-0.14066462
41	0xbdc2eaa5	-0.09517411
42	0xbe7ae363	-0.24500804
43	0x3e26e6c7	0.16298972
44	0x3de383d8	0.111091316
45	0x3de0d37f	0.1097784
46	0xbea026d6	-0.3127963
47	0x3db95f38	0.09051365
48	0x3c95fd41	0.018309237
49	0xbdab6bb3	-0.08370151
50	0xbd888fa7	-0.066680245
51	0x3d15b03e	0.03654503
52	0xbd71cb3d	-0.059031714
53	0xbe96dc27	-0.29464838
54	0xbecd8757	-0.4014232
55	0xbdd8b802	-0.10581972
56	0xbdb4388c	-0.08799848
57	0xbdf37f79	-0.11889548
58	0x3e44115a	0.19147244
59	0xbe887b63	-0.26656637
60	0x3e7b5ad2	0.24546364
61	0xbebcf281	-0.36903766
62	0x3e19c05a	0.15014783
63	0xbe28e2e0	-0.16492796
64	0xbd1ba274	-0.037996724
65	0xbd790c09	-0.060802493
66	0xbd195a12	-0.037439413
67	0xbe991619	-0.29899672
68	0xbd57ecf5	-0.052716214
69	0xbe8482da	-0.25881082
70	0x3e64c3b9	0.22340287
71	0xbe93bbf0	-0.28854322
72	0x3e1aed48	0.15129578
73	0xbd4e141c	-0.050312147
74	0x3d1ad764	0.03780307
75	0x3d8d439f	0.06897663
76	0x3d4baf16	0.04972752
77	0x3e9392ae	0.28822845
78	0x3e1510a9	0.14557137
79	0xbd87f5ce	-0.066386804
80	0x3ea1f0e7	0.31629106
81	0x3e2b5e61	0.16735221
82	0x3b55c283	0.0032617159
83	0xbde5ce03	-0.11220934
84	0xbe7f924e	-0.24958155
85	0x3cb3bc1d	0.021940285
86	0x3e0938b9	0.13400544
87	0x3e1a4f79	0.15069379
88	0x3dbe33ff	0.09287261
89	0x3e0ac373	0.1355112
90	0xbdec0fb4	-0.11526433
91	0x3cd6380f	0.026149778
92	0x3e3fa465	0.18715055
93	0x3e846d2a	0.25864536
94	0xbe6f0205	-0.23340614
95	0xb99bdcb2	-0.00029728335
96	0xbeaa3ac8	-0.33247972
97	0xbe288e39	-0.16460504
98	0xbe1a3f5b	-0.1506323
99	0xbe3c2c65	-0.1837631
100	0xbe28140f	-0.16413902
101	0xbcff5101	-0.031166555
102	0x3e045c15	0.12925752
103	0x3dfb2435	0.12262765
104	0xbe56ef7f	-0.20989798
105	0xbe465adc	-0.19370598
106	0x3d6dde41	0.058073286
107	0xbe84536a	-0.2584489
108	0x3e6a8a2a	0.22904268
109	0xbd20b3f8	-0.03923413
110	0x3df42666	0.119213864
111	0x3e361860	0.17782736
112	0xbeb66010	-0.35620165
113	0xbd31882e	-0.04334276
114	0xbdc22fa6	-0.094817445
115	0xbe18cd8b	-0.14922158
116	0xbe8eb9ed	-0.27876225
117	0x3e1dc74a	0.15408054
118	0xbe1a7803	-0.15084843
119	0xbeb9502d	-0.36193982
120	0xbd810d8f	-0.06301414
121	0xbca2ef25	-0.019889424
122	0x3e881691	0.26579717
123	0xbccba4d1	-0.024858864
124	0xbe4e4620	-0.20143938
125	0x3e1baed3	0.15203409
126	0x3e0ee809	0.13955702
127	0xbc7a88f6	-0.015291443
128	0xbc0e5d2b	-0.008689205
129	0xbe07edde	-0.13274333
130	0x3d4bbb1e	0.049738996
131	0xbdc8a2fd	-0.097967125
132	0x3d3f9636	0.04677411
133	0x3d572089	0.052521262
134	0x3de5b94f	0.112169854
135	0xbd19954d	-0.0374959
136	0x3e0d9f45	0.13830288
137	0xbe3c3090	-0.183779
138	0x3c52abea	0.01285837
139	0xbd582173	-0.052766275
140	0xbd8807cd	-0.06642113
141	0xbe69e05a	-0.2283949
142	0x3e0f696b	0.14005058
143	0x3c4a1bf0	0.012335762
144	0xbe08d9f4	-0.13364393
145	0x3d8da719	0.06916637
146	0xbde4ad7a	-0.111659005
147	0xbe5a2a1a	-0.21305123
148	0xbe53d1cc	-0.206855
149	0x3e378efa	0.17925635
150	0x3de23c59	0.11046667
151	0xbe80eb82	-0.25179678
152	0x3e387603	0.18013768
153	0x3d74871b	0.05969916
154	0xbd4514d1	-0.048115555
155	0xbdb55516	-0.088541195
156	0xbe9987bf	-0.2998638
157	0xbee6c7df	-0.45074365
158	0x3dc27e0f	0.094967
159	0xbdf99c92	-0.121880665
160	0x3e56da99	0.20981826
161	0xbd54469f	-0.051825162
162	0xbdc52cb2	-0.096276656
163	0xbe7fa619	-0.24965705
164	0x3d8c9b3e	0.068655476
165	0xbb9aa0bc	-0.004718868
166	0xbe3020e9	-0.17200054
167	0x3d65623f	0.056001898
168	0x3dfe9fad	0.124327995
169	0xbddb5a87	-0.10710626
170	0xbe50754b	-0.20357244
171	0x3db3d3f0	0.08780658
172	0x3e724488	0.23658955
173	0x3df75347	0.12076431
174	0xbe6b802a	-0.2299811
175	0x3e24f646	0.16109571
176	0xbe591635	-0.21199878
177	0x3d8c0599	0.06837005
178	0xbd87cf76	-0.06631367
179	0x3d8045ca	0.06263311
180	0xbe075b22	-0.13218358
181	0x3e19e2a2	0.1502786
182	0x3e4cff0b	0.20019166
183	0x3e1f12fe	0.15534589
184	0xbdf1587e	-0.11784457
185	0xbdfb24c7	-0.12262874
186	0x3e4f87a4	0.20266587
187	0x3e05714f	0.13031505
188	0x3d9ae1be	0.07562588
189	0xbef647c1	-0.4810162
190	0xbcbd7a64	-0.02312965
191	0x3e78364f	0.24239467
192	0xbe83e070	-0.2575717
193	0xbe381edc	-0.17980522
194	0xbd882a3a	-0.06648679
195	0xbe289a4c	-0.1646511
196	0xbd753919	-0.059868906
197	0xbd854fc8	-0.06509358
198	0xbedb9e66	-0.42894286
199	0xbd074f7d	-0.03303479
200	0x3cde689c	0.027149491
201	0x3e5d0c67	0.21586762
202	0x3e3b7c99	0.18309249
203	0xbd6c39ce	-0.057672314
204	0xbd93249c	-0.07184717
205	0xbe24197d	-0.16025348
206	0xbc15a16d	-0.009132725
207	0x3dbc9a26	0.09209089
208	0xbbf3ce92	-0.0074403966
209	0xbdbb6748	-0.09150559
210	0x3e47c15f	0.19507359
211	0xbe3ad279	-0.18244351
212	0xbe537aa6	-0.20652255
213	0x3cd3e6fc	0.025866978
214	0x3de36927	0.111040406
215	0xbd469c6c	-0.04848902
216	0xbd9426f3	-0.072339915
217	0xbe522627	-0.20522366
218	0xbe1513f0	-0.14558387
219	0xbe837307	-0.25673696
220	0x3e846f32	0.25866085
221	0x3d0c38c3	0.03423382
222	0xbe3757d7	-0.17904602
223	0xbdaef1c3	-0.08542206
224	0x3e2fa4bd	0.17152686
225	0xbe4737d9	-0.19454898
226	0x3e3f8c06	0.18705758
227	0x3e4b5c95	0.19859536
228	0xbb9f7295	-0.004865954
229	0xbca930af	-0.020653097
230	0x3cacd61a	0.021098185
231	0xbe8a2af2	-0.2698589
232	0x3e01ece0	0.12688017
233	0x3e26352d	0.16231222
234	0x3dd327d6	0.103103325
235	0x3dd286cf	0.10279619
236	0xbebbe2c6	-0.36696452
237	0xbe5e9b6a	-0.21738973
238	0x3e19631b	0.14979212
239	0x3d929d71	0.07158936
240	0x3e3fcaff	0.1872978
241	0xbd85c16b	-0.06531032
242	0x3ddb1c58	0.106987655
243	0x3df3bf58	0.1190173
244	0xbdefd806	-0.11711125
245	0xbcb64f08	-0.022254482
246	0xbe4ec421	-0.20192005
247	0x3be47823	0.006972329
248	0xbdd8ec15	-0.10591904
249	0xbdd40908	-0.10353285
250	0xbdbf0c5d	-0.0932853
251	0xbe08e807	-0.13369761
252	0xbd9c9702	-0.0764599
253	0xbec35f0b	-0.3815845
254	0xbe880d28	-0.26572537
255	0x3e1ca5f9	0.15297689

fc3.bias f4 [10]
0	0x3cd63b50	0.02615133
1	0x3c4f9911	0.012670771
2	0x3cf6f23f	0.030144809
3	0xbd80caba	-0.06288667
4	0x3d87de7f	0.06634235
5	0x3e4aac65	0.19792326
6	0xbdb4cbe4	-0.088279516
7	0xbdb19bc2	-0.086722866
8	0x3c9b80d3	0.018982327
9	0xbdcd873e	-0.10035561
